…
INFO:root:第5折    训练周期: 4 [0/48 (0%)]   训练Loss: 0.695579   训练正确率: 62.50%
INFO:root:第5折    训练周期: 5 [0/48 (0%)]   训练Loss: 0.676985   训练正确率: 75.00%
INFO:root:第5折    训练周期: 6 [0/48 (0%)]   训练Loss: 0.673280   训练正确率: 75.00%
INFO:root:第5折    训练周期: 7 [0/48 (0%)]   训练Loss: 0.693936   训练正确率: 62.50%
INFO:root:第5折    训练周期: 8 [0/48 (0%)]   训练Loss: 0.703559   训练正确率: 50.00%
INFO:root:第5折    训练周期: 9 [0/48 (0%)]   训练Loss: 0.714186   训练正确率: 50.00%
INFO:root:第5折    训练周期: 10 [0/48 (0%)]   训练Loss: 0.705086   训练正确率: 50.00%
INFO:root:第5折    训练周期: 11 [0/48 (0%)]   训练Loss: 0.693341   训练正确率: 37.50%
INFO:root:验证集: auroc=0.4861, auprc=0.5000, f1_score=0.6250
INFO:root:Model(
  (emb_dssp_ref): Embedding(9, 24)
  (emb_dssp_alt): Embedding(9, 24)
  (emb_asseq_ref): Embedding(21, 48)
  (emb_asseq_alt): Embedding(21, 48)
  (gat1): GAT(
    (gat1): GATv2Conv(480, 128, heads=4)
    (relu): LeakyReLU(negative_slope=0.01)
    (bn1): BatchNorm1d(512, eps=1e-05, momentum=0.1, affine=True, track_running_stats=True)
    (gat2): GATv2Conv(512, 128, heads=4)
    (bn2): BatchNorm1d(128, eps=1e-05, momentum=0.1, affine=True, track_running_stats=True)
  )
  (gat2): GAT(
    (gat1): GATv2Conv(480, 128, heads=4)
    (relu): LeakyReLU(negative_slope=0.01)
    (bn1): BatchNorm1d(512, eps=1e-05, momentum=0.1, affine=True, track_running_stats=True)
    (gat2): GATv2Conv(512, 128, heads=4)
    (bn2): BatchNorm1d(128, eps=1e-05, momentum=0.1, affine=True, track_running_stats=True)
  )
  (attn1): Attention(
    (attn): MultiheadAttention(
      (out_proj): NonDynamicallyQuantizableLinear(in_features=112, out_features=112, bias=True)
    )
    (layernorm): LayerNorm((112,), eps=1e-05, elementwise_affine=True)
  )
  (attn1_2): Attention(
    (attn): MultiheadAttention(
      (out_proj): NonDynamicallyQuantizableLinear(in_features=112, out_features=112, bias=True)
    )
    (layernorm): LayerNorm((112,), eps=1e-05, elementwise_affine=True)
  )
  (attn2): Attention(
    (attn): MultiheadAttention(
      (out_proj): NonDynamicallyQuantizableLinear(in_features=112, out_features=112, bias=True)
    )
    (layernorm): LayerNorm((112,), eps=1e-05, elementwise_affine=True)
  )
  (attn2_2): Attention(
    (attn): MultiheadAttention(
      (out_proj): NonDynamicallyQuantizableLinear(in_features=112, out_features=112, bias=True)
    )
    (layernorm): LayerNorm((112,), eps=1e-05, elementwise_affine=True)
  )
  (dropout): Dropout(p=0.25, inplace=False)
  (fc1): Linear(in_features=960, out_features=32, bias=True)
  (fc2): Linear(in_features=32, out_features=1, bias=True)
  (relu): LeakyReLU(negative_slope=0.01)
)
INFO:root:K fold Result:
Mean AUROC=0.4917
Mean AUPRC=0.5000
Mean F1=4.0000e-01
INFO:root:0.4916	0.5	0.4
